my_mnist.model (npz, 333940 bytes, 6 tensors)

l3/W f4 [10, 100]
00000000: a8cb 03be 12cb 1bbe c478 b13e e1be 9a3c
00000010: 7f93 efbc 63c7 25be 137f c73d 585e 5b3e
00000020: 81ac ffbd 317e 9cbe d148 07bc e053 1dbe
00000030: b8f7 013e 0a2b 27bc 32c5 f2b9 e970 243e
00000040: ce9f c1be f438 0fbe 837c 2fbd cdd1 973d
00000050: 4df9 073e 6500 b93d 959a bb3d 8eba 613e
00000060: 1a19 afbe 1b54 59bd c683 f43c fc49 883e
00000070: 4c36 a0be 2c95 d63e 645c 1abd 3f7d 6dbe
00000080: 67d8 2d3e 2905 8b3d 859c 533d bab2 fc3e
00000090: afbd 3bbd 476b 81be 7e11 693e 208a 1a3d
000000a0: 6a9d 61be 1700 b23c 0c0b 853d 1a0a a3bd
000000b0: 8602 3b3e 4cd3 57be cf0d 553e 4492 89be
000000c0: fe2e 0b3e 7b94 0d3e 8f83 983d ed88 d83e
000000d0: ea42 2bbe e72d 513e 4b08 3c3e 8f33 17bd
000000e0: 6706 eabd d38b 963d 103b c53d df3f eebd
000000f0: 617b dabe b133 963e 12c2 073f b103 bdbd
00000100: 07eb a8be 1277 ddbd 83a7 303e 7cc4 6bbe
00000110: b495 8e3d c0a7 52be 867b 72bc c3b8 4ebd
00000120: eb5f 003d e076 8b3e 99ab 593e f63c 3a3e
00000130: c488 40bd 5aba ba3d 503b 1c3c 93f9 3dbe
00000140: dd6a f33e 8608 86bd d63e 61bd e6d9 243d
00000150: cac3 43be 24a6 ac3d afd1 3e3e 33f3 9f3c
00000160: aef5 e63d 5810 73bc 6a58 c73d 41da 8cbb
00000170: e6a6 a23c 40bb b03e 0e55 d3be be14 72bd
00000180: 15e1 f0be 9191 673d 7a82 3d3e 4776 21be
00000190: ac1f 013e 5573 373d 9ba4 93bd 534b b23d
000001a0: ae0e 653e d7d1 fa3b c601 993d 957b c9bd
000001b0: c337 58be 05d0 92bd 7a7e 09be 554c f33e
000001c0: f4a8 14be d670 11be 02f7 783d 7740 5d3e
000001d0: c0a7 19be 7555 563e 1ee5 613e a15e 3d3d
000001e0: 6e14 e0bd 7b56 10be d31f 3abe a9bb 0ebe
000001f0: 5aeb 583c 9e47 443e d515 083d c910 54be
00000200: 6385 c3bd 113f 51be fd1c 933d 0273 c63e
00000210: fa10 583d a56c 713e b7b5 173e 21dc a13c
00000220: 5440 df3d fbb8 9a3d 8373 a13e 375c 733d
00000230: 3d18 d43e 7388 b2be 5390 77be 7855 82be
00000240: 7ba5 dabd 7cc3 70be a964 cb3d e554 ddbc
00000250: 6383 1c3e 8a16 46be f8d1 f53c 080d a9ba
00000260: 1b27 203e 0bed 203e 028d 483e f9aa 4abc
00000270: 132e b63d f3b9 db3c a0f3 c13e 9dbb 3b3c
00000280: c31f 8e3e 16a6 d3be ca78 0ebf f2b4 013d
00000290: ef21 c33c adb8 0dbb 99eb a2be d4c0 363f
000002a0: 138c 65bc 7dbe e6bd acb1 ec3e b637 16be
000002b0: 5dd0 773d 6054 593d 3115 ff3d 2e3c 63bd
000002c0: 915f adbe 2121 bf3e 2c4b f2be 80ec d9bd
000002d0: 1911 283d ce92 fd3e d6c5 7abd 8eb1 af3b
000002e0: 164f 4bbe 436b 2bbe e2b3 2abe ae4f 01bd
000002f0: bbc6 00be f6c3 33bd 7055 283e 0282 c3be
00000300: 381d 69be 0c5c 8dbd 7f50 4fbd 79f5 8dbd
00000310: 99cf 46be 58da 7b3d b3c8 893d cd70 2b3e
00000320: 80be 9d3e 0105 87be 3e62 cb3d a3ea 25bc
00000330: c179 b73d 5862 89bc 568d fdbd b629 183e
00000340: 0096 563e 3b95 21bd 95d3 253e e4e2 9b3e
00000350: 0bc4 2ebe 656f 19be f3e0 ee3d afec 12be
00000360: 43a2 56be 2d03 e5bd 9d65 143e 162b 5e3e
00000370: 44a5 26bb d720 1abe e483 11bf c99f d13d
00000380: 8689 933e 6d06 8ebe 67b7 d33e 5a86 99bd
00000390: ef44 533e ece4 b73d 9ff6 363d 64bf 1a3e
000003a0: d0b3 8c3e f0f2 ed3e 17a4 973d 44a5 093d
000003b0: 6b02 c1bd f8ab 1fbe 934f 03bf 0586 35be
000003c0: 4e87 87be afdf 903f 562e 1fbe 71d1 6f3e
000003d0: 6292 a2be 218d 7cbe 7e94 5a3d d879 cfbe
000003e0: 1dca 02bd c2c0 05bf a9aa 2f3e 5253 993d
000003f0: 41c3 3fbe 53db e13c f538 303e 3f21 22bc
-0.12870657 -0.15214184 0.3466245 0.018889846 -0.029245136 -0.16189341 0.09741034 0.21422708
-0.124840744 -0.30565026 -0.008257107 -0.15364027 0.12692153 -0.010203132 -0.0004630476 0.16058697
-0.37817234 -0.1398657 -0.042843353 0.07413063 0.13278694 0.090332784 0.091603436 0.22043821
-0.34198838 -0.053058725 0.02984799 0.26618946 -0.31291425 0.41910684 -0.037685767 -0.23192309
0.16977082 0.067880936 0.05166294 0.49355108 -0.045835193 -0.2527716 0.22760579 0.037729383
-0.22032705 0.021728558 0.06496248 -0.07960911 0.18262681 -0.21076697 0.20806049 -0.26869404
0.13592145 0.13826172 0.07446968 0.42291966 -0.16724744 0.20427667 0.18362539 -0.036914404
-0.114270024 0.07350888 0.09630406 -0.11633276 -0.42672256 0.29336312 0.530305 -0.0922922
-0.32991812 -0.108137265 0.172514 -0.23024172 0.06962147 -0.20571804 -0.014799958 -0.05046917
0.031341475 0.27239132 0.21256866 0.18187317 -0.04700543 0.09117575 0.009535626 -0.18552236
0.47542468 -0.065445945 -0.054991566 0.040246867 -0.19117656 0.08430126 0.18634675 0.019525146
0.112773284 -0.01483544 0.097336605 -0.004298479 0.019854974 0.3451786 -0.4127583 -0.059101813
-0.47046724 0.056535307 0.18506804 -0.15767775 0.12609738 0.044787724 -0.072091304 0.08705773
0.22368881 0.0076544094 0.074710414 -0.098380245 -0.21115021 -0.07168583 -0.13427153 0.47519174
-0.14517576 -0.142032 0.06078244 0.21606623 -0.15005398 0.20931037 0.22060058 0.046232823
-0.10941397 -0.1409549 -0.18176202 -0.13938774 0.013239706 0.19167945 0.033223946 -0.20709528
-0.09546926 -0.20434214 0.071832635 0.3875962 0.052750565 0.23576601 0.14815412 0.019758286
0.109009415 0.075548135 0.3153344 0.059414115 0.41424742 -0.34869727 -0.24176149 -0.25455832
-0.10676094 -0.23512071 0.09931309 -0.02701802 0.15284495 -0.19344535 0.030007347 -0.001289756
0.15639918 0.15715425 0.1958504 -0.012369865 0.08895507 0.026822066 0.37881184 0.011458305
0.27758607 -0.4133765 -0.5565306 0.031666704 0.023819892 -0.0021624968 -0.31820372 0.7138798
-0.014010447 -0.112668015 0.46229303 -0.1466969 0.060501445 0.053058982 0.12455214 -0.055477314
-0.33861974 0.37329963 -0.47322977 -0.10640812 0.04103193 0.49526066 -0.061223827 0.0053617423
-0.19854388 -0.16740136 -0.16670182 -0.03157013 -0.1257581 -0.043888055 0.16438842 -0.38185126
-0.22765052 -0.06902322 -0.050613876 -0.06931586 -0.1941513 0.061487526 0.067277335 0.16742249
0.30809402 -0.26371005 0.099308476 -0.010126743 0.089587696 -0.016770527 -0.12380473 0.14859661
0.20955658 -0.039448958 0.16193993 0.3044654 -0.17066972 -0.149839 0.116639994 -0.143481
-0.20960335 -0.11182246 0.14491887 0.21696123 -0.0025428096 -0.1505159 -0.56841874 0.10235555
0.2881586 -0.27739277 0.41350862 -0.07496329 0.20631765 0.0897921 0.04466879 0.15112072
0.27480936 0.4647441 0.074043445 0.033604875 -0.09424289 -0.15592945 -0.51293296 -0.17726906
-0.26470417 1.1318263 -0.1554502 0.2341974 -0.31752306 -0.24663211 0.05336427 -0.40522647
-0.03193103 -0.5224725 0.17154945 0.07486595 -0.18726827 0.027570402 0.17209227 -0.009895622

l3/b f4 [10]
00000000: ce11 07be 96e8 f93d 146c 153d 0d95 02be
00000010: 68de 71bc 50ac 5e3e 97bb 5d3b fd4e d2bb
00000020: 06f0 14bd 0d7e 7fbd
-0.13190386 0.12202565 0.036480024 -0.12752171 -0.014762498 0.2174542 0.0033833736 -0.0064181075
-0.036361717 -0.06237607

l1/W f4 [100, 784]
00000000: 4bd1 293b e2d9 29bb 9714 b23c 084f be3c
00000010: ba03 b6ba 3ed0 bc3c b63d 5e3d 7710 45bd
00000020: 7f7b 363c 6298 cbbc 130b 02bd f42e 85bd
00000030: a8db 623c e832 2dbc edd6 26bb d51c 913c
00000040: 927a 993c 2f1e 923b 372a a73d c3c6 5cbc
00000050: f7e7 6fbc 01ca 183c bd95 25bd 0d87 edbc
00000060: 2cb9 30bb e34c f13c 308d 1bbc fa4f 9bbc
00000070: 9afd aebc d62c a73c b2d3 a83b 0d73 49ba
00000080: a510 5ebd 601c 8cbd 205c 0d3d 31c8 23bc
00000090: 1528 3c3d 4bb2 973b 8e65 0fbc dc05 b73c
000000a0: 3b3a f0bc 90a6 31bc e4c7 893c 0e9f 84bb
000000b0: b818 36bd f3e4 29bd 38e4 0c3d 03d7 f4bb
000000c0: d9b9 c7bd 8422 153d 5be0 6dbd d8a3 7a3c
000000d0: a035 453d 4f1a 3dbd 976d 3c3c a535 c0bc
000000e0: 3f30 703d a44a c03b d16f f7b9 983f 86bd
000000f0: f3d2 08bd 75b7 09bd 7bbc 0abd 4aa6 a63c
00000100: 2914 5b39 2f17 223d c2b4 6fbc 75e4 77bc
00000110: cb93 4fbd d63d aebc 888a 843b eae7 ba3c
00000120: 658b 103c b458 8a3c d277 b1bc 6e62 eabc
00000130: d582 a8bc ba97 86bd b4e2 88bc 4d04 88bc
00000140: 5b72 493d 36b9 d1bc 3f2d 41bd f77b 783d
00000150: 7696 0cbd 2197 d83c 62a3 ae3c ccd8 92bd
00000160: f1e5 5b3d 20c6 efba 47da 6f3c 1869 94bc
00000170: e298 c4bc f1f6 e73c b20a 25bb ad11 853c
00000180: 944b 863d 3a5a 0e3d 5cc1 ae3d 0c07 be3c
00000190: 2441 27bd e289 85bd 492c 573c 16b8 2ebd
000001a0: 5adf ccbc 33f9 37bd b8e3 b23b ac3d 0dbd
000001b0: 72e8 223d c398 e8bb de20 00bd f75a 99bc
000001c0: a516 703c 3aad a93b f006 dabc a5cb 0c3c
000001d0: a86e 2d3d 7366 373b 67a9 6fbd d69b dfbc
000001e0: c02b 5fbd ca53 ccbd 80a7 28bc ddc2 cdbc
000001f0: 1287 57bd 2f00 873d d85e 21bd f62e 0fbd
00000200: c6c1 923b c78f b93c bd48 d23c 89f6 553d
00000210: 9927 d13a 1b3b 1bbc a814 10bd 5580 443d
00000220: 2399 373c 7b66 d63b 7998 b33c 975b 66bd
00000230: 671c aebd 8f3d 033c 777d 723c 38e6 95bd
00000240: 2ce1 6abb 037b f5bc 343e d4bb d8d3 343c
00000250: d0d8 4e3c 6ea7 313c 7564 eabb be04 37bd
00000260: a7ec e63c 2872 79bc 6f61 b83c 4430 853d
00000270: 6f6f 44bc a9fa b5bb bb8d 5f3d 992c 08bd
00000280: c191 61bd d9a7 d9bc eda0 5ebb 052d 133d
00000290: 4444 513d 01cc 9fbc 1800 c7ba 4951 0bbd
000002a0: f2cb 7ebd ab65 a13c e983 593d 6211 413d
000002b0: 2b9a 1a3a ee01 423d cc4e ee3c d79b efbc
000002c0: 0a51 5b3d 6f05 82bc 4a3d babd b748 74bd
000002d0: 8e7d 13bb 6047 1bbd 31c1 81bd 2e1b 35bd
000002e0: 6e11 daba 60c0 21bc a4ef 2d3d 0827 73bd
000002f0: 105b aa3c eb64 dbbb 86bf 4fbd be32 80bc
00000300: 9bde b43c 8af5 d33d 5413 073c 0a8b 923d
00000310: 687b 37bc 4734 5abd ec8d 66bc a42b 39bc
00000320: 675f 063d 6363 c1b9 0344 be3c aa29 033d
00000330: b5af 153c 2f92 243d c49b 0b3d 5d2d 6d3c
00000340: 37ea 89bd a736 99bd eca0 1fbd c93c 993c
00000350: ff3c 2cbd f8a1 063d 026d 623d 4390 5fbc
00000360: 6a85 8c3c 0db2 9a3c 240f 38bc 5c6d fb39
00000370: b235 74bd b2e8 57bc 5fa2 003c 58c0 44bd
00000380: 854c 833d 4980 b4bc 47da 14bc df96 1b3b
00000390: 5aa9 02bc 86ef 2b3c 46ea c93c ca25 97bc
000003a0: 8d6d 373d 7718 b03b 729d f0ba 5577 343c
000003b0: 5ebd 7c3d 2bf1 2abd 4153 1bbd f1ce 193d
000003c0: bb7f 62bc 4a34 78ba dd4c 1dbc 1d72 cebc
000003d0: 61d7 0a3d 3e1b aabb 3976 f23c 2e58 663d
000003e0: ed7b 7d3c 7b4d 413c 5f21 94bb 22d3 0e3d
000003f0: 17e2 0ebd 62a2 4dbc d47e 0f3d 2841 7ebd
0.0025912102 -0.0025917222 0.021738334 0.023231044 -0.0013886609 0.023048516 0.05425807 -0.048111405
0.011137842 -0.024852935 -0.031748842 -0.06503096 0.013846315 -0.010571219 -0.0025457696 0.017713943
0.018735204 0.0044591646 0.08162349 -0.013475123 -0.014642707 0.009325505 -0.040426005 -0.028995061
-0.002696584 0.029455608 -0.009494111 -0.018959034 -0.021361161 0.020407122 0.005152189 -0.00076846854
-0.054215092 -0.068413496 0.034511685 -0.00999646 0.045936663 0.0046294085 -0.00875224 0.022341661
-0.029324641 -0.010842934 0.016818948 -0.004047281 -0.044457167 -0.04147811 0.034397334 -0.0074719205
-0.097522445 0.03640987 -0.05807529 0.015297852 0.048146844 -0.046167668 0.011500738 -0.02346308
0.05863976 0.005868273 -0.0004719482 -0.06555098 -0.0334043 -0.033622224 -0.033871155 0.020342965
0.00020892978 0.03957289 -0.014630498 -0.015130152 -0.050678056 -0.02126972 0.0040448345 0.022815663
0.008822297 0.016888 -0.02166358 -0.028611388 -0.020570198 -0.06571908 -0.016709663 -0.016603613
0.049181323 -0.02560101 -0.04716229 0.060665097 -0.03432318 0.026439251 0.021318141 -0.07170257
0.053686086 -0.0018293299 0.014639444 -0.018116519 -0.023998681 0.028315993 -0.0025183377 0.01624378
0.06557384 0.034754016 0.08532974 0.02319672 -0.040833607 -0.0652044 0.013133117 -0.042656027
-0.025008846 -0.04491539 0.005459275 -0.034482643 0.03977246 -0.0070982887 -0.031281345 -0.018720133
0.014653836 0.005178121 -0.026614636 0.0085934745 0.04234186 0.0027984648 -0.058511164 -0.027295988
-0.054485083 -0.09976919 -0.010293841 -0.025117332 -0.052619047 0.06591832 -0.03939709 -0.034956895
0.004478666 0.022651566 0.02566945 0.052237067 0.0015957236 -0.009474541 -0.03517595 0.04797395
0.011205944 0.0065429783 0.02192329 -0.05623969 -0.08501511 0.008010282 0.014800421 -0.07319301
-0.003583978 -0.029965883 -0.0064771418 0.011036836 0.012624934 0.010843141 -0.0071530887 -0.044682257
0.028189017 -0.015224971 0.022507397 0.065033466 -0.011989458 -0.0055535627 0.054578524 -0.033245657
-0.055070642 -0.026569294 -0.003397043 0.035931606 0.051090494 -0.019506456 -0.0015182523 -0.034013066
-0.062206216 0.0197018 0.053104315 0.04713572 0.00058976066 0.04736512 0.029090308 -0.029249115
0.05354408 -0.015871732 -0.09093721 -0.05963966 -0.0022505256 -0.037909865 -0.063356765 -0.044215374
-0.0016637275 -0.009872526 0.042464867 -0.059363395 0.020795375 -0.00669538 -0.05071976 -0.015649196
0.022078803 0.10349567 0.008244354 0.07155426 -0.011198856 -0.05327251 -0.014071923 -0.011301909
0.032805827 -0.00036885877 0.02322579 0.032022156 0.00913613 0.040178474 0.034084097 0.0144761475
-0.06734126 -0.07481127 -0.038971826 0.018705742 -0.042050358 0.03286931 0.05527974 -0.0136452345
0.01715346 0.01888373 -0.011234079 0.0004795593 -0.05962152 -0.0131780375 0.007851212 -0.048034996
0.06411079 -0.022033827 -0.0090852445 0.002374105 -0.007974947 0.010494119 0.024647843 -0.018450636
0.04478221 0.00537401 -0.0018357469 0.011014779 0.061704032 -0.041733902 -0.037921194 0.03755087
-0.013824399 -0.0009468241 -0.009600845 -0.025200898 0.033896808 -0.005191236 0.029597389 0.05623644
0.015471441 0.011798258 -0.0045205797 0.03486932 -0.034883585 -0.012550922 0.035033062 -0.062073857

l1/b f4 [100]
00000000: 280b 7a3a 43cf 8f3c 5cd3 a7ba 24ce 02bc
00000010: 4606 febd 3950 793b 9fa1 d83c e7c8 92bb
00000020: 296b 903c 5f42 05bd 9c29 5cbd d027 383d
00000030: 42aa 47bd eb07 9a3c e4b2 d2bc d640 a3bb
00000040: 5341 8f39 93e0 dfb9 cba9 0fbb 1476 403e
00000050: 2da4 853d 02fb 2b3d 990c e93c ac81 3e3d
00000060: 013b 543d dae4 4e3e d268 d23d 7b26 9dbd
00000070: c2ba 543d e71f 18bd 3135 92bd fa63 653d
00000080: b7c0 ccbc 2e5e 56bb 9307 c5bd 0ae4 35bd
00000090: 86f1 2cbd 25e7 2d3b be21 e03c e9bc 25bd
000000a0: 7a33 4b3c 1af1 00bd b17c 0f3d eb13 f83c
000000b0: 7499 25bd 5573 cd3c 1c92 9f3d 47f7 843b
000000c0: 5286 bb3c f46b 113e 460c 823d 6a17 453e
000000d0: 8e7b 3b3d 5b23 e2bc 2edf dfbc 5546 faba
000000e0: 9238 8dbd af9e d23c 088d 1e3d 5cce 2cbd
000000f0: 5ebc ddbd add7 ba3c d6f5 bf3b 6eb6 aabd
00000100: 9c47 f1bd cffe bf3d 844c a03d c001 efbc
00000110: b6c9 773a 4551 be3d 1a1c 8bbd 96ed deb9
00000120: 6008 29bd 7f43 163c ceb1 4b3d a1c4 6d3d
00000130: 0d6e cc3c 09bc 43bd 3223 d5bb 3836 0e3d
00000140: 0243 d0bb 015f 7a3d 9531 f6bd bc54 b93d
00000150: 180b 853d 16eb 4ebd 13f1 85bc a0d1 ffbb
00000160: bead 6c3d 785c 5c3d a522 273d 7bac 933d
00000170: 028f 303d e2d5 733d 25e9 1f3d 7687 f03d
00000180: e9c8 7f3d 82a1 c33c d576 bfbd 7ce6 193d
0.00095384056 0.017554885 -0.0012804079 -0.007983718 -0.1240354 0.0038042201 0.026444254 -0.004479516
0.017629223 -0.032534 -0.05375062 0.044959843 -0.048746355 0.018802604 -0.025720067 -0.0049820943
0.00027323756 -0.00042701195 -0.0021921273 0.18795043 0.06525455 0.041987427 0.02844839 0.046510383
0.051814083 0.20204487 0.10273899 -0.07673355 0.05193592 -0.0371398 -0.07139052 0.05600355
-0.024994237 -0.0032709944 -0.09620585 -0.044406928 -0.042222522 0.0026535478 0.02735984 -0.040463362
0.01240241 -0.031479932 0.035031024 0.030282935 -0.040429547 0.025079409 0.0779154 0.004057798
0.022891197 0.14201337 0.06349997 0.19247213 0.045772128 -0.02760475 -0.0273281 -0.0019094447
-0.068955556 0.025710432 0.038708717 -0.042188987 -0.10826944 0.02280792 0.0058581633 -0.08335577
-0.117812365 0.09374773 0.07827094 -0.02917564 0.00094523595 0.09292845 -0.06792469 -0.00042520155
-0.041267753 0.009171366 0.049730115 0.058048848 0.02495482 -0.047786746 -0.0065044397 0.034719676
-0.006355644 0.06112576 -0.12021176 0.09049365 0.064962566 -0.050517164 -0.016350305 -0.0078069717
0.05778288 0.053799123 0.040804524 0.072106324 0.043105133 0.059530146 0.039040703 0.11744587
0.062447462 0.023880724 -0.09348837 0.037573323

l2/W f4 [100, 100]
00000000: 706f b03e 164c 4ebc 4b84 e43d 163a 933e
00000010: ce43 903e ab06 e2bd bdc6 203d 3860 b7bb
00000020: 31e4 14bd 4702 573c 1e23 603e 5ff0 643e
00000030: 0010 8b3e 085d 7fbc 9237 ab3d e659 3cbd
00000040: 78a2 143e 0ee8 35bc 6a97 683d 3013 75bd
00000050: 9f7d 8ebe 9f97 e83d eac0 c03d c5a2 85bd
00000060: 19a8 c73e 079f 1bbe 154d bb3c acb2 c43d
00000070: d5c2 2f3e 0689 333e 2281 a8bc 2c9f 143d
00000080: d121 e8bc 2330 94be f1d6 af3d 133e 4d3d
00000090: 51fc 6e3e 2d65 aa3e 0a0c 47bd 142e 47bd
000000a0: 8bbf e1bd 5cd0 08be 8fd4 35be 7845 553e
000000b0: 2f2e babc 80d7 c53c 3b90 fcbd 02b6 263e
000000c0: d453 30be 14c7 26bd 2a83 f9bd 1a4f 9a3c
000000d0: 6637 5abd 118c e0bd a921 3dbc 6cd2 cd3d
000000e0: df5f 833e 8be5 aa3d c22b 19be f593 8a3b
000000f0: 53c6 d4bc a2c2 83bb 3abd 7dbd a72f 04be
00000100: 3380 233e 176a c4bd 5942 4dbe bd6f 873d
00000110: a0d1 7dbd a9bb b33c 103b 443e 83f8 f23c
00000120: 303a 4a3e 8436 29be e5a1 283d 4a9d 15be
00000130: 0036 1dbd 9120 5abc 4f60 3bbd 3d9c 813d
00000140: b3e5 69bc 3704 db3d 6c6b 033e 9c30 17be
00000150: 851d 2e3e c8b5 ba3e 2fba 8e3e 1600 813c
00000160: 0d82 87bd f1b0 013e 2be2 b2bd 0352 b53d
00000170: 7c76 e83c 0f8e c93d 886b 803d d01c 953d
00000180: bd5d 04bd ba52 203e e395 3d3e 284f 913d
00000190: cc9e 7c3e 079f b2bd deef 13be f8a4 033e
000001a0: 9c0b 64be befe 833e cbc3 2fbd 7699 95bd
000001b0: 11ad 433e d885 423e 77a6 543e 01b7 853d
000001c0: adcc babd 8104 5a3e 30ba 4cbd 0a9b b73a
000001d0: 4114 c23d c5a7 8d3c 8ace 0f3d 385d 973d
000001e0: 6dd3 ef3c 71d5 44bd 8851 703d 8631 f43d
000001f0: 7aa0 ecbd 3c20 2fbd e9e1 5abd 10f6 d53d
00000200: c98f 4a3d a347 07bd 1868 c3bd 7c54 5e3d
00000210: 87e5 cdbd ed0b 0dbd 0b4b 0fbe 0768 8c3d
00000220: 28b7 c53d f6f9 233d 48ce db3d b683 05be
00000230: 7f3e 1abe 4ab3 073d 30c9 363c f3af 723d
00000240: ab92 953e b8c6 d13d 0d21 c2bd df9e d03d
00000250: cca2 07be fbf6 00bd ef32 9cbd 11ba 2f3e
00000260: 50a9 3abd 9c4e c2bd 0f30 a3bd 087a 78bd
00000270: 0558 233e 16b4 05be a313 03be c1d7 18bd
00000280: 0055 07bd 8861 303e 1fb4 b43d d077 a03c
00000290: 42e0 19be 3418 dc3d 9309 0bbe 534a 37be
000002a0: c433 f93d d52a 213d ec6e 0f3e 8671 4c3d
000002b0: 19c5 a23a 17e5 00be 4922 01be 7ec2 1f3d
000002c0: 97a7 e5bd 929e b8bd c80c a4bd 7d43 ccbc
000002d0: 5235 013c a471 30be 81cf 68bd cf72 91be
000002e0: 15f1 a43d 0cbd 25be bb37 bfbd bdd9 913d
000002f0: ae74 95bd dc31 453e 8d39 42be 2fc6 e23c
00000300: d2b8 bebc f4c6 18be f8f5 4c3c c61e 05bc
00000310: 77bd 7c3d dc80 bd3d 7ebd 673e 4db0 e93d
00000320: 37ad 51bd 5a06 09bd 7ae8 b03d 7a3f 623d
00000330: e582 003e 77c4 42be 9c85 c83c 235c 9abd
00000340: e7d0 613d 4b57 c6bc 24a2 763d b8c2 2a3d
00000350: d6f5 dd3c a8df 55bd 9d5b d1bd 8d62 82bc
00000360: 48ec 3bb9 a6d9 403d f484 893e 2a84 4bbb
00000370: acf2 b7bc 0947 9dbd ebe8 b8bd 1e38 7a3d
00000380: 6453 09be b297 a13b d41a 9b3d e6e7 b03d
00000390: 938c 88bc a4bb 243d 6fc4 02be 9d78 c3bc
000003a0: ee5c 2abd 1c64 593d 36db c3bc 1b5e 713d
000003b0: f1c0 f33d 4b32 8bbe 67c5 ab3c 353a 893d
000003c0: eb0f 98bd 74df 22bc 02ed 91bc 8ade 6e3d
000003d0: cb09 11bd 3011 3ebe dd7c dc3d 7ef8 e43d
000003e0: 7be7 d3bd 5d8f 1dbe b967 083e c246 96bd
000003f0: 8198 b33c 7e3e fe3a a659 dc3d c5c6 a93d
0.3446002 -0.0125913825 0.111580454 0.28755254 0.2817673 -0.11036428 0.03925203 -0.005596187
-0.036350433 0.013123102 0.21888396 0.2235732 0.27160645 -0.015586145 0.083602086 -0.04598417
0.14515102 -0.011102689 0.056785025 -0.05983275 -0.27830216 0.113570444 0.094117954 -0.065251864
0.38995436 -0.15197383 0.022863904 0.096043915 0.17164166 0.17532739 -0.020569388 0.03628461
-0.028336437 -0.28942975 0.08585919 0.050108027 0.23338439 0.33280316 -0.048595466 -0.048627928
-0.11022862 -0.13360733 -0.17756866 0.20827281 -0.0227271 0.02415061 -0.12332197 0.16280368
-0.17219478 -0.0407172 -0.12183221 0.018836547 -0.05327549 -0.109642155 -0.01154367 0.100499004
0.2565908 0.08344563 -0.14958099 0.0042290636 -0.025973475 -0.004021005 -0.06194804 -0.12908803
0.15966873 -0.095905475 -0.20044841 0.06613109 -0.061967492 0.02194007 0.19163156 0.029659515
0.1974876 -0.16524702 0.04117002 -0.14610782 -0.038381577 -0.0133134285 -0.045746144 0.06328628
-0.014275956 0.10694163 0.12833947 -0.14764637 0.17003448 0.36466813 0.27876422 0.015747111
-0.06616602 0.12665154 -0.08734544 0.08853533 0.02837681 0.09841549 0.0627051 0.07280886
-0.03231596 0.15656558 0.18514208 0.07095176 0.24669951 -0.08721738 -0.14446971 0.128559
-0.22270054 0.2578029 -0.042911332 -0.07304661 0.19108988 0.1899637 0.20766626 0.06529046
-0.0912107 0.2129078 -0.04998225 0.0014007997 0.094765194 0.017291913 0.03510908 0.07390827
0.02927562 -0.048055116 0.058671504 0.11923508 -0.11554046 -0.04275535 -0.0534381 0.10447323
0.04945353 -0.033027302 -0.09541339 0.05427979 -0.100535445 -0.0344352 -0.1399347 0.06855779
0.09654075 0.040033303 0.107327044 -0.13038525 -0.15062903 0.033129968 0.011156365 0.05924983
0.2921346 0.10242981 -0.0947896 0.10186552 -0.13245696 -0.03148554 -0.07626902 0.17160822
-0.045571625 -0.0948765 -0.07968151 -0.060663253 0.15951546 -0.13056979 -0.1280046 -0.037315134
-0.033040047 0.17224705 0.08823418 0.019588381 -0.15026954 0.10746804 -0.13577871 -0.17899446
0.12168077 0.03934749 0.14007157 0.049912952 0.0012418359 -0.12587391 -0.12610735 0.03900384
-0.11213606 -0.0901462 -0.0801025 -0.024934525 0.007886248 -0.1723085 -0.056838516 -0.28407905
0.08053795 -0.16185397 -0.093368016 0.071216084 -0.072976455 0.19257301 -0.18967266 0.027682392
-0.023281489 -0.14919645 0.012509815 -0.008125013 0.061704125 0.092530936 0.2263088 0.1141058
-0.05119058 -0.033453323 0.086380914 0.055236317 0.12549932 -0.19020258 0.024477772 -0.07537105
0.055130865 -0.024211546 0.060213223 0.041689605 0.027094763 -0.05221525 -0.10222552 -0.015916133
-0.00017921731 0.047082566 0.26859248 -0.0031054118 -0.022454582 -0.076795645 -0.090288006 0.061088674
-0.13410717 0.0049314136 0.075734764 0.08637981 -0.016668594 0.04021801 -0.12770246 -0.023861224
-0.04159253 0.053073987 -0.023908239 0.058927637 0.11902035 -0.27186808 0.020968152 0.06700555
-0.07424911 -0.009940971 -0.01781321 0.0583177 -0.03540973 -0.18561244 0.10766003 0.111802086
-0.10346886 -0.1538672 0.13320817 -0.07337715 0.021923305 0.0019397286 0.107592866 0.082898654

l2/b f4 [100]
00000000: 562f ba3b 4637 63bc a1aa 5f3c 25b9 043b
00000010: 6cb5 a13d 702f 553d 95b3 25b9 7873 26bd
00000020: 18cd 5bbc 506c c03d 8864 f8bc a8e6 f83c
00000030: 4418 1abd 9a09 12bd c0da 693b aac8 053c
00000040: f70c ff3d 5027 9a3d 5251 bb3c de29 60bc
00000050: 32ae 84bc d8f4 e6bb 6940 9a3d d6d2 923d
00000060: 9d2c bd3c eb93 fe3c a65e dc3d cc37 a03c
00000070: b1fa fc3c 2405 583d 0a08 9bbb e813 253d
00000080: 9dbf 353c 23ea 3d3d 9d92 82b9 9da3 7fbd
00000090: 7ff4 883d 8d82 423b 2b2e 5c3d 17a6 eebc
000000a0: 2bae 8c3d 76a4 3a3d e106 d63c e3d8 31bb
000000b0: 2966 7c3c 5174 433d 3f0f 37bb 0764 873d
000000c0: 6b0f 4a3d 704f 093d a06b 4bbc 2e7e 313c
000000d0: 7649 293d 0515 113d fec1 cc3b 1c0a 5c3d
000000e0: 810f 08bb 38d9 0c3c f54c 053d c952 f73c
000000f0: ef8b b03d bcaa ca3d 7fb4 123b cc85 863d
00000100: b5a9 dd3d 9f61 d63c af5f 033d be19 db3d
00000110: 5632 4bbd 4d06 c93c 8af4 493d f922 afb9
00000120: 1fe4 c53b 4ddf 6bbc 7dc8 003c bad3 84bb
00000130: af89 1b3c 5882 b23b 957b ae3a 2cb5 75b8
00000140: ff9c 7d3c 41af 7f3d 7e4e 99bd 9006 06bc
00000150: 1582 aa38 772c 63bd c466 893c 0f87 7bbb
00000160: 803e 1a3d 0e44 573a a9f8 423c 6361 773c
00000170: f4bb da3a 1587 6b3d dcde 9abc b494 803d
00000180: 5b5d 073d 3d88 553d 4527 b0bc 1a2e ed3c
0.0056819124 -0.013868159 0.013651521 0.0020251956 0.078959316 0.052047193 -0.00015802526 -0.040637463
-0.013415597 0.09395659 -0.030321375 0.030383423 -0.037620798 -0.035653688 0.0035683364 0.008165518
0.12453645 0.075270295 0.022865925 -0.013681857 -0.016196344 -0.0070482306 0.075318165 0.0716912
0.023092562 0.031076392 0.1076024 0.019557856 0.030881258 0.052739277 -0.004731183 0.040302187
0.011093047 0.04636587 -0.00024904768 -0.062411893 0.06687259 0.0029679865 0.053754967 -0.029131932
0.068691574 0.045567 0.026126327 -0.0027137331 0.015405216 0.04771835 -0.0027932671 0.066108756
0.04933111 0.033523023 -0.0124157965 0.010833306 0.041329823 0.035420436 0.0062487116 0.05372058
-0.0020761194 0.008596711 0.032544095 0.030190842 0.0862044 0.09895846 0.0022385416 0.065684885
0.10823385 0.026169596 0.032073673 0.10698269 -0.04960855 0.024539137 0.049305476 -0.00033404658
0.006039157 -0.014396501 0.0078603 -0.00405356 0.009493276 0.005447667 0.0013311977 -5.858128e-05
0.015479325 0.062422995 -0.07485674 -0.008180276 8.130461e-05 -0.055462327 0.016772635 -0.0038380062
0.03765726 0.000821174 0.0119001055 0.015098902 0.0016688094 0.05750187 -0.018905096 0.06278363
0.033048015 0.05213188 -0.0215031 0.028952647
